gnn_model.pth (torch, 592848 bytes, 14 tensors)

gnn.conv1.user__rates__movie.lin_l.weight f4 [64, 610]
-0.07631436 -0.035959918 -0.02899278 -0.051323913 -0.08364884 -0.06916558 -0.0592595 -0.09386657
-0.019989427 -0.055051222 -0.048320584 -0.05289993 -0.069789566 -0.02524102 -0.0932643 -0.058192804
-0.026697483 -0.07417646 -0.060800944 -0.0482679 -0.06720605 -0.024499312 -0.05352854 -0.07119704
-0.0986007 -0.04613137 -0.023066193 -0.04021071 -0.036682982 -0.019571628 -0.08346337 -0.03767514
-0.06762591 -0.050835248 -0.0636146 -0.096877016 -0.025676608 -0.07806787 -0.06110546 -0.060333718
-0.06278997 -0.09437203 -0.06205858 -0.09682062 -0.05359559 -0.061615534 -0.032516714 -0.09367642
-0.097315475 -0.020585598 -0.03460103 -0.030366372 -0.042218298 -0.08907322 -0.077535346 -0.048435528
-0.049502566 -0.032221157 -0.07164371 -0.037573453 -0.05639803 -0.079888746 -0.07724725 -0.04705796
-0.042293567 -0.06877745 -0.06402371 -0.033669256 -0.072476596 -0.09876499 -0.091500774 -0.026574073
-0.022336384 -0.09834442 -0.042791937 -0.03707978 -0.093300395 -0.080172025 -0.046197683 -0.02841489
-0.022150688 -0.02073752 -0.087358244 -0.038238693 -0.08582533 -0.06299118 -0.068737954 -0.072434016
-0.043856964 -0.021291308 -0.07950645 -0.09522873 -0.04966064 -0.06847936 -0.04803294 -0.01905843
-0.040643685 -0.09801469 -0.022071863 -0.066878825 -0.082905635 -0.09066927 -0.07669038 -0.06614755
-0.06697427 -0.061784383 -0.026593337 -0.06767277 -0.07714596 -0.025822127 -0.041316394 -0.098302834
-0.05312041 -0.032217838 -0.08086517 -0.040251657 -0.05124772 -0.042513583 -0.06423221 -0.09287298
-0.02572454 -0.019936286 -0.030059947 -0.061205696 -0.07110262 -0.094601266 -0.0674799 -0.09881745
-0.053616524 -0.06481349 -0.069979385 -0.0403055 -0.07417884 -0.0671045 -0.031764004 -0.0793231
-0.019688722 -0.058664367 -0.02245261 -0.04898631 -0.08747777 -0.062857665 -0.053973302 -0.0308213
-0.049175955 -0.02117886 -0.06284244 -0.084419206 -0.047992494 -0.06745829 -0.022953337 -0.022432458
-0.050922904 -0.097855784 -0.042281263 -0.02994 -0.088558264 -0.087560646 -0.06751633 -0.040553838
-0.057076897 -0.026287895 -0.037586764 -0.042650048 -0.056780964 -0.08443168 -0.09155036 -0.067964934
-0.031952783 -0.05139891 -0.032140467 -0.10021563 -0.026843395 -0.08452905 -0.033767775 -0.09217878
-0.035048693 -0.054247666 -0.098473765 -0.026966283 -0.02658697 -0.029271338 -0.039050456 -0.025459329
-0.08573931 -0.023326166 -0.068443395 -0.038997196 -0.05365945 -0.043425497 -0.07226044 -0.026890486
-0.023088658 -0.098815456 -0.04433681 -0.06704999 -0.033715155 -0.028005404 -0.08604101 -0.058620755
-0.043547407 -0.030517606 -0.0774257 -0.056203872 -0.08213794 -0.08516327 -0.03367897 -0.030061798
-0.062104758 -0.07092861 -0.05365695 -0.07572338 -0.07987483 -0.08103738 -0.050385598 -0.05310718
-0.07781917 -0.09780169 -0.06532506 -0.035999656 -0.07455192 -0.027916824 -0.0939264 -0.090699755
-0.048290487 -0.08120737 -0.0956058 -0.07935591 -0.083509505 -0.0720191 -0.09362184 -0.02362755
-0.093777515 -0.022786455 -0.078048214 -0.08222892 -0.09435363 -0.026109712 -0.075186215 -0.09309924
-0.04254326 -0.09302517 -0.020068973 -0.0374092 -0.023887867 -0.09975477 -0.026157636 -0.08316478
-0.09045247 -0.04660391 -0.034564413 -0.06416086 -0.06667827 -0.087760225 -0.04249987 -0.09572455
00000000: b44a 9cbd b54a 13bd 4482 edbc 0639 52bd
00000010: 1550 abbd afa6 8dbd 17ba 72bd 1e3d c0bd
00000020: dec0 a3bc 647d 61bd ceeb 45bd 99ad 58bd
00000030: d5ed 8ebd 41c6 cebc 5a01 bfbd 945b 6ebd
00000040: aeb4 dabc d4e9 97bd 690a 79bd 90b4 45bd
00000050: 53a3 89bd c8b2 c8bc be40 5bbd c1cf 91bd
00000060: 2aef c9bd 3ff4 3cbd 50f5 bcbc fcb3 24bd
00000070: e540 16bd ae54 a0bc d8ee aabd 3f51 1abd
00000080: 747f 8abd 9f38 50bd 5f48 82bd 7567 c6bd
00000090: c057 d2bc 0ce2 9fbd b849 7abd 7d20 77bd
000000a0: 0798 80bd 1f46 c1bd 2331 7ebd e449 c6bd
000000b0: 0d87 5bbd 9260 7cbd 3f30 05bd 6cd9 bfbd
000000c0: 564d c7bd 21a3 a8bc cfb9 0dbd e6c2 f8bc
000000d0: 18ed 2cbd 056c b6bd daca 9ebd 5564 46bd
000000e0: 34c3 4abd 55fa 03bd f0b9 92bd 9fe6 19bd
000000f0: 9f01 67bd b69c a3bd ce33 9ebd d9bf 40bd
00000100: 053c 2dbd 31db 8cbd dd1e 83bd c6e8 09bd
00000110: 9c6e 94bd 4d45 cabd c264 bbbd dfb1 d9bc
00000120: cbfa b6bc cd68 c9bd 9946 2fbd f8e0 17bd
00000130: 4714 bfbd 3b31 a4bd c839 3dbd 58c6 e8bc
00000140: 5c75 b5bc bbe1 a9bc e1e8 b2bd 2da0 1cbd
00000150: 31c5 afbd 8501 81bd 7cc6 8cbd 4958 94bd
00000160: 5ca3 33bd 1c6b aebc 47d4 a2bd 4807 c3bd
00000170: f568 4bbd e83e 8cbd 30be 44bd 6d20 9cbc
00000180: fe79 26bd edbb c8bd 0dd0 b4bc c4f7 88bd
00000190: 6eca a9bd cfb0 b9bd d90f 9dbd 5e78 87bd
000001a0: ce29 89bd 9f11 7dbd 45da d9bc 0598 8abd
000001b0: b3fe 9dbd ed88 d3bc 613b 29bd ff52 c9bd
000001c0: c994 59bd daf6 03bd a39c a5bd ecde 24bd
000001d0: 21e9 51bd b922 2ebd 2d8c 83bd 3034 bebd
000001e0: 45bc d2bc 6c51 a3bc 4740 f6bc d3b2 7abd
000001f0: 409e 91bd 4fbe c1bd e732 8abd ce60 cabd
00000200: 009d 5bbd efbc 84bd 5a51 8fbd 6117 25bd
00000210: 13eb 97bd 166e 89bd f91a 02bd 2674 a2bd
00000220: 3e4a a1bc 0c4a 70bd 89ee b7bc dea5 48bd
00000230: 8c27 b3bd 85bb 80bd 1c13 5dbd f37c fcbc
00000240: ba6c 49bd 4a7f adbc 8ab3 80bd fae3 acbd
00000250: c793 44bd 9227 8abd a308 bcbc 46c4 b7bc
00000260: 8994 50bd 9d68 c8bd 1e2f 2dbd bb44 f5bc
00000270: 095e b5bd ff52 b3bd 0046 8abd c81b 26bd
00000280: 77c9 69bd b659 d7bc 94f4 19bd d1b1 2ebd
00000290: 2893 68bd 84ea acbd c17e bbbd 3331 8bbd
000002a0: ece0 02bd aa87 52bd b9a5 03bd da3d cdbd
000002b0: aee6 dbbc 911d adbd 1450 0abd 3ac8 bcbd
000002c0: 388f 0fbd cd32 5ebd 9dac c9bd 65e8 dcbc
000002d0: ebcc d9bc 72ca efbc 5ff3 1fbd 1590 d0bc
000002e0: 1798 afbd 8416 bfbc 0d2c 8cbd 86bb 1fbd
000002f0: 03ca 5bbd efde 31bd 48fd 93bd 7049 dcbc
00000300: 6d24 bdbc c25f cabd 849a 35bd 8151 89bd
00000310: e718 0abd 976b e5bc 4536 b0bd 511c 70bd
00000320: c45e 32bd 0f00 fabc 5e91 9ebd 0836 66bd
00000330: f037 a8bd 156a aebd f6f2 09bd 2944 f6bc
00000340: 8f61 7ebd 0543 91bd 64c7 5bbd dc14 9bbd
00000350: 6a95 a3bd edf6 a5bd 2161 4ebd ea86 59bd
00000360: a85f 9fbd 414c c8bd 25c9 85bd 6074 13bd
00000370: adae 98bd d3b1 e4bc 7c5c c0bd cbc0 b9bd
00000380: 3fcc 45bd 0d50 a6bd f9cc c3bd 5a85 a2bd
00000390: 0807 abbd c07e 93bd cfbc bfbd 908e c1bc
000003a0: 6d0e c0bd a9aa babc bed7 9fbd a367 a8bd
000003b0: 7a3c c1bd 09e4 d5bc 3bfb 99bd d0aa bebd
000003c0: d741 2ebd fb83 bebd b067 a4bc 643a 19bd
000003d0: 7db0 c3bc 3b4c ccbd 8a48 d6bc 4c52 aabd
000003e0: 253f b9bd bee3 3ebd 6a93 0dbd c566 83bd
000003f0: 9e8e 88bd a2bb b3bd 5814 2ebd 3c0b c4bd

gnn.conv1.user__rates__movie.lin_l.bias f4 [64]
-0.059715502 -0.05528252 0.039005764 -0.0749949 -0.098190166 0.024096405 -0.04955116 -0.054730766
-0.07858175 0.011760129 0.020758951 -0.036222287 0.0339005 0.013081148 0.0052641593 -0.08559809
0.0031334895 0.02872063 -0.07758458 -0.027790973 -0.09838387 0.060116768 -0.09598573 -0.004037264
-0.08128898 -0.08736525 -0.09713508 0.0033514935 0.002930553 0.013805897 0.023877196 -0.056025777
-0.014334526 -0.05443895 -0.023193974 -0.002400383 0.042383555 0.020250095 -0.022778956 0.0314407
-0.08072573 -0.012956532 -0.10009784 -0.015758798 -0.052329477 -0.03542268 -0.057830375 -0.022260329
0.009127497 -0.00029987993 -0.036300074 -0.047636338 -0.050471682 -0.040094297 0.02300982 -0.07022187
-0.07001445 -0.049189042 -0.048130732 -0.040213346 -0.018625326 0.058317956 -0.073130585 0.0682154
00000000: 3e98 74bd ec6f 62bd 82c4 1f3d ed96 99bd
00000010: ed17 c9bd d365 c53c 28f6 4abd 5e2d 60bd
00000020: 78ef a0bd 8ead 403c ad0e aa3c d25d 14bd
00000030: 40db 0a3d 5052 563c f87e ac3b 0d4e afbd
00000040: 3b5b 4d3b 8747 eb3c aae4 9ebd e5a9 e3bc
00000050: 7c7d c9bd 003d 763d 2b94 c4bd 064b 84bb
00000060: d67a a6bd 8dec b2bd c2ee c6bd bba4 5b3b
00000070: 850e 403b 2132 623c 1c9a c33c 497b 65bd
00000080: 5cdb 6abc 60fb 5ebd 4a01 bebc be4f 1dbb
00000090: 619a 2d3d 87e3 a53c ef9a babc f7c7 003d
000000a0: 8853 a5bd a247 54bc 1900 cdbd 9818 81bc
000000b0: 6f57 56bd 5f17 11bd 8bdf 6cbd 4b5b b6bc
000000c0: 7f8b 153c 3439 9db9 63af 14bd 521e 43bd
000000d0: 65bb 4ebd eb39 24bd 177f bc3c 7cd0 8fbd
000000e0: bc63 8fbd 737a 49bd bb24 45bd c0b6 24bd
000000f0: 2494 98bc cfde 6e3d 7dc5 95bd 84b4 8b3d

gnn.conv1.user__rates__movie.lin_r.weight f4 [64, 404]
0.05802146 -0.08794546 0.044047654 -0.029117562 -0.040323418 -0.027327536 -0.10352783 0.013305482
-0.10518378 0.089749835 -0.058166783 -0.10236077 0.022034075 -0.047968958 0.089355096 -0.10614307
-0.08419106 -0.07723361 -0.05323387 0.09380412 0.08280365 -0.05329792 -0.053318586 -0.01285167
0.030356994 0.021472326 -0.104440965 -0.011922969 0.039202064 0.021644242 -0.099551186 -0.07414778
0.010393184 0.05648864 0.044029437 0.08391539 0.083500884 -0.018696018 0.086771704 -0.030089863
0.094638765 0.043774262 -0.10163752 0.036775548 -0.07859823 0.08270807 -0.020151408 0.024421694
-0.0776233 -0.04523169 0.10100645 -0.062325295 0.010468952 0.05602947 -0.09471004 0.09148437
0.061921343 -0.039974537 -0.096272305 0.089791074 -0.037352838 0.10641683 0.08250644 -0.014459578
-0.010497927 -0.07635605 0.013463343 0.041505236 0.10594301 0.08811457 0.046493143 -0.101665705
0.108235285 0.06995877 -0.06652871 0.075282186 -0.043176632 0.017374938 0.08834837 0.019658545
-0.01409516 0.08788985 0.07194677 0.030084316 -0.059505023 -0.088486694 -0.016806299 -0.087062664
0.07464744 -0.01579043 0.08066205 -0.074058264 -0.034419615 -0.02061629 0.108157285 0.014981174
0.08853578 0.021803102 -0.029831344 -0.090921156 -0.09002808 0.039421864 0.042962674 0.03183195
-0.056309193 0.05683716 -0.04942373 -0.032425504 -0.089403644 0.036734506 0.08545949 0.039334685
-0.023509175 -0.09558866 -0.10895875 0.0433436 -0.056655936 -0.086883724 -0.047122527 -0.09679689
-0.06555984 -0.01115109 0.10773734 -0.051265016 0.0707465 0.08378445 -0.028577752 0.029841758
-0.029832037 0.028121071 -0.030548407 -0.09248565 -0.049765375 -0.02864592 0.054153133 -0.043929495
0.10701482 -0.06407965 0.037308153 0.021714913 0.019744998 0.07704411 -0.021530682 -0.043362997
0.10950745 -0.08551484 -0.07473653 0.074866064 0.026542054 -0.025971988 0.055297256 0.06277446
0.03613495 -0.089188054 0.10445334 0.097760044 -0.028637366 -0.09829605 -0.02079238 -0.06862972
-0.10457153 0.051613186 -0.101128876 0.081055254 0.017781239 0.08727894 0.058271095 -0.10059029
0.049877226 -0.014109711 0.09786718 0.1060775 0.013513689 -0.03618491 -0.023296747 -0.09120314
-0.0768899 -0.051210295 0.10147902 0.08804023 0.067980066 0.10950635 0.037393615 0.039308652
-0.03691081 -0.03912541 -0.07968164 -0.10853082 -0.07263386 -0.09122269 0.0855559 0.023689447
0.0926453 -0.083098665 -0.08584665 0.046487745 0.07527969 0.029099917 0.012454764 0.05621305
-0.024241254 0.09548882 -0.06770864 0.021831246 -0.03467367 -0.09916186 0.058995772 0.09526723
0.030107753 -0.058529954 -0.098843835 -0.01047622 -0.12667702 -0.023562614 0.08787698 0.049531892
0.071325295 -0.05405553 0.02975857 0.045612995 -0.08822198 0.021469891 -0.041502986 -0.034695525
-0.022530051 0.03594483 0.10199284 -0.10121134 -0.027199734 -0.048870638 0.010614611 -0.043128427
-0.047295544 0.023917058 -0.085628726 0.10833741 -0.10190841 -0.01603508 -0.06043616 -0.09465826
-0.06772822 0.04965396 0.08314887 -0.0666712 0.04692691 0.097579174 0.017623294 0.02764468
0.017033536 -0.06599568 -0.06288492 -0.042787585 0.10856683 0.060319975 0.05848381 0.07211935
00000000: e9a7 6d3d c01c b4bd 506b 343d f487 eebc
00000010: 2b2a 25bd ffdd dfbc 6606 d4bd 3dff 593c
00000020: 986a d7bd c3ce b73d 4b40 6ebd 86a2 d1bd
00000030: ce80 b43c 197b 44bd ceff b63d 8a61 d9bd
00000040: 5d6c acbd a82c 9ebd c20b 5abd 601c c03d
00000050: f694 a93d eb4e 5abd 9764 5abd d08f 52bc
00000060: 3baf f83c bbe6 af3c 25e5 d5bd 8e58 43bc
00000070: 5892 203d 444f b13c 7ee1 cbbd cbda 97bd
00000080: 2c48 2a3c a260 673d 3658 343d d5db ab3d
00000090: 8302 ab3d 6428 99bc 5db5 b13d 047f f6bc
000000a0: f8d1 c13d a44c 333d 5527 d0bd f5a1 163d
000000b0: 1cf8 a0bd d962 a93d 9114 a5bc 0110 c83c
000000c0: f7f8 9ebd dd44 39bd 78dc ce3d cf48 7fbd
000000d0: f885 2b3c 287f 653d 56f7 c1bd 285c bb3d
000000e0: 3ca1 7d3d 57bc 23bd 6a2a c5bd 62e4 b73d
000000f0: 4aff 18bd 11f1 d93d 23f9 a83d dee7 6cbc
00000100: 7fff 2bbc 9060 9cbd 5a95 5c3c 6501 2a3d
00000110: a6f8 d83d 6975 b43d 986f 3e3d 1c36 d0bd
00000120: 76aa dd3d 8b46 8f3d 3440 88bd 8c2d 9a3d
00000130: fbd9 30bd e355 8e3c fdef b43d f50a a13c
00000140: 63ef 66bc 98ff b33d d458 933d 6273 f63c
00000150: 8abb 73bd 8338 b5bd 5dad 89bc e94d b2bd
00000160: c2e0 983d ef5a 81bc 2532 a53d dcab 97bd
00000170: 95fb 0cbd 7ee3 a8bc 9181 dd3d 9973 753c
00000180: 3f52 b53d 6b9c b23c dd60 f4bc df34 babd
00000190: a460 b8bd d278 213d a1f9 2f3d 3862 023d
000001a0: 78a4 66bd 15ce 683d 8970 4abd 9bd0 04bd
000001b0: 4219 b7bd ec76 163d 6305 af3d 681d 213d
000001c0: 5096 c0bc fdc3 c3bd c425 dfbd 0f89 313d
000001d0: 0e10 68bd 18f0 b1bd 8d03 41bd 733d c6bd
000001e0: 3d44 86bd 10b3 36bc 65a5 dc3d 44fb 51bd
000001f0: 8ae3 903d 2f97 ab3d e41b eabc b476 f43c
00000200: 5162 f4bc 295e e63c a740 fabc 1e69 bdbd
00000210: c7d6 4bbd d9aa eabc adcf 5d3d 6aef 33bd
00000220: 962a db3d 313c 83bd 6fd0 183d 79e3 b13c
00000230: 43c0 a13c 4dc9 9d3d 1d61 b0bc 669d 31bd
00000240: 7145 e03d 6822 afbd 770f 99bd 6153 993d
00000250: b96e d93c 35c3 d4bc 607f 623d e58f 803d
00000260: 3e02 143d 3aa8 b6bd a2eb d53d 6b36 c83d
00000270: e998 eabc 714f c9bd c854 aabc bd8d 8cbd
00000280: 9929 d6bd 5968 533d a81c cfbd 4c00 a63d
00000290: f6a9 913c 4dbf b23d acad 6e3d 4802 cebd
000002a0: 104c 4c3d 6b2c 67bc 976e c83d 293f d93d
000002b0: 8568 5d3c a136 14bd d2d8 bebc b6c8 babd
000002c0: 7478 9dbd e3c1 51bd 3cd4 cf3d 704e b43d
000002d0: 2239 8b3d dd44 e03d 0c2a 193d 1c02 213d
000002e0: ca2f 17bd f741 20bd 2130 a3bd 6845 debd
000002f0: 10c1 94bd f6d2 babd ef37 af3d 5f10 c23c
00000300: d2bc bd3d a22f aabd 5ed0 afbd ef69 3e3d
00000310: 3d2c 9a3d f362 ee3c 110f 4c3c a83f 663d
00000320: 9895 c6bc a48f c33d d4aa 8abd 71d7 b23c
00000330: fa05 0ebd 6015 cbbd 8da5 713d 771b c33d
00000340: 89a4 f63c 1bbd 6fbd a36e cabd 74a4 2bbc
00000350: 9fb7 01be 6206 c1bc d9f8 b33d f4e1 4a3d
00000360: ff12 923d 5569 5dbd 3fc8 f33c b1d4 3a3d
00000370: baad b4bd a0e1 af3c 09ff 29bd e51c 0ebd
00000380: f190 b8bc e33a 133d 9fe1 d03d e447 cfbd
00000390: fad1 debc 942c 48bd e8e8 2d3c 6fa7 30bd
000003a0: f9b8 41bd b5ed c33c 1d5e afbd 01e0 dd3d
000003b0: 5bb5 d0bd 005c 83bc e88b 77bd 31dc c1bd
000003c0: 18b5 8abd f361 4b3d f449 aa3d e98a 88bd
000003d0: 6e36 403d 97d7 c73d ba5e 903c 1977 e23c
000003e0: ea89 8b3c be28 87bd cfc9 80bd 0942 2fbd
000003f0: 4958 de3d 1412 773d b88c 6f3d 4fb3 933d

gnn.conv1.movie__rev_rates__user.lin_l.weight f4 [64, 404]
-0.080095634 0.064519 0.0017029969 -0.015777577 0.076623395 0.076995105 -0.031408187 -0.0828915
0.049224902 -0.05521486 0.004399099 0.03236659 -0.060345806 0.030085567 -0.08649662 0.023666553
0.06653642 0.05016383 0.04923759 0.0019866917 -0.079147056 0.027887806 0.061432064 0.0072381757
-0.055295914 -0.15939496 0.030456008 0.014863321 -0.06611849 -0.01755839 -0.15813898 0.0032851081
-0.02240499 -0.048513956 0.00055403163 0.0014161689 -0.054774452 0.07679867 -0.0035723646 0.026875801
-0.026959926 -0.013099427 0.019754518 -0.06807315 0.0012742748 -0.06745564 0.026818486 -0.04110297
0.0004967661 0.04660523 -0.010915397 0.015139908 -0.021594068 -0.06753965 -0.012735734 -0.08121865
-0.11320368 -0.019407537 0.058607947 0.003244197 0.055698916 -0.032651108 -0.015696941 0.04005514
0.05170592 0.02886342 -0.14322788 -0.033648998 -0.038098473 -0.06397669 0.00058517855 0.03872545
-0.023101877 -0.079804875 0.045989797 -0.0039935876 0.06944104 -0.021692263 -0.016585527 -0.061354257
0.040821314 -0.00028287686 -0.082974456 -0.036187906 0.035517465 0.01947478 0.033410396 0.0518636
-0.075823076 0.02318873 -0.049838997 0.010934007 0.004792293 -0.0030929476 -0.06056724 0.0028296066
-0.06285362 -0.07415705 0.07173277 0.054666597 0.04129501 -0.005655149 -0.0395372 -0.057017945
0.0387804 -0.008052687 0.052279916 0.16249135 0.06786092 -0.08084178 0.007502184 -0.0059310365
-0.20973362 0.078704365 0.07718368 -0.052614916 -0.005000421 0.060352214 0.08457447 -0.011670488
0.0770946 0.082451686 -0.027914008 0.113162175 -0.06176001 -0.020881694 -0.011335656 -0.038874906
0.084753826 -0.0657729 0.0747638 0.01978733 0.07877445 -0.0071415524 0.0016985207 -0.0719772
-0.017652469 0.008395653 -0.057378262 -0.045119368 -0.015826158 -0.03946173 -0.009408585 0.053357933
-0.06343606 0.04938588 0.054434348 -0.09252453 -0.062202252 0.06873651 -0.025217135 -0.06798195
-0.039114013 0.06533087 0.020240333 -0.059990402 0.028265191 0.056943245 0.04205702 0.07178032
0.02210664 -0.07238904 0.08158135 -0.027807645 -0.019483373 -0.030103818 0.030638909 0.011761052
-0.0404127 0.054104604 0.0077250954 -0.031616468 -0.07239922 0.041243386 0.10549371 0.033087414
0.0020129913 0.011801233 -0.04655701 -0.41814947 -0.056405712 -0.1121362 -0.033247843 0.1392941
0.08645724 0.036039002 0.011393312 0.06423581 0.042808663 0.081432104 0.008792614 -0.07224439
-0.043608226 0.039488494 0.04723571 -0.044889577 -0.07847355 -0.11052101 -0.011864745 0.0006758168
0.027864663 -0.07962295 0.055734523 -0.059624184 0.051164318 0.027089424 0.00043873888 -0.029906377
-0.08246587 -0.014615722 -0.008618099 -0.050869603 -0.098187625 0.07300482 0.0008579513 -0.06596618
0.076917425 0.069400676 -0.00072275364 -0.000105132785 0.018562583 -0.013818609 -0.009827111 0.02254995
0.055306252 -0.018170066 0.0336034 0.06849049 0.0010297134 0.031931605 0.0039057438 0.070459776
-0.019698905 -0.019109752 0.07894414 -0.059010345 0.0075597228 0.017577903 0.0033108075 0.0667369
0.06637596 -0.032722328 -0.07307704 0.008416696 0.028902305 -0.029829506 -0.019279843 -0.046140656
-0.037422076 0.08826601 0.035441946 -0.011745454 0.0073060044 -0.043852378 -0.023761462 0.008827685
00000000: 2e09 a4bd 8a22 843d 1837 df3a fa3f 81bc
00000010: baec 9c3d 9caf 9d3d dfa5 00bd 05c3 a9bd
00000020: 0da0 493d fa28 62bd 5126 903b d492 043d
00000030: 2a2d 77bd 0276 f63c 2425 b1bd 5ce0 c13c
00000040: 3f44 883d 9778 4d3d 5bad 493d 2833 023b
00000050: da17 a2bd f874 e43c 30a0 7b3d 382e ed3b
00000060: f87d 62bd 6f38 23be e17e f93c 4985 733c
00000070: 2269 87bd 9dd6 8fbc 2fef 21be f84a 573b
00000080: ab8a b7bc 92b6 46bd 6f3c 113a be9e b93a
00000090: 2d5b 60bd 9f48 9d3d 551e 6abb a42a dc3c
000000a0: 10db dcbc fb9e 56bc 3ad4 a13c f069 8bbd
000000b0: 9105 a73a 2f26 8abd 71b2 db3c 965b 28bd
000000c0: 6939 023a 20e5 3e3d 7ed6 32bc 600d 783c
000000d0: 0be6 b0bc 3a52 8abd 8aa9 50bc f755 a6bd
000000e0: 55d7 e7bd 8efc 9ebc e30e 703d 989c 543b
000000f0: 8c24 643d 2bbd 05bd df96 80bc dc10 243d
00000100: 96c9 533d fb72 ec3c 54aa 12be 88d3 09bd
00000110: 250d 1cbd 3606 83bd ab66 193a 949e 1e3d
00000120: 2640 bdbc bd70 a3bd cc5f 3c3d a4dc 82bb
00000130: 1b37 8e3d f9b3 b1bc 5fde 87bc 9a4e 7bbd
00000140: 4034 273d 174f 94b9 83ee a9bd c539 14bd
00000150: c37a 113d 9389 9f3c 57d9 083d ed6e 543d
00000160: 2149 9bbd 4bf6 bd3c fa23 4cbd 8d24 333c
00000170: ab08 9d3b 0db3 4abb 5b15 78bd ec70 393b
00000180: 66b9 80bd a7df 97bd a1e8 923d 15ea 5f3d
00000190: f524 293d d44e b9bb c2f1 21bd a68b 69bd
000001a0: 32d8 1e3d 6bef 03bc 7723 563d 2264 263e
000001b0: abfa 8a3d 6090 a5bd e1d4 f53b 2459 c2bb
000001c0: 69c4 56be c12f a13d 7a12 9e3d bd82 57bd
000001d0: 92da a3bb e233 773d 6135 ad3d 9335 3fbc
000001e0: c6e3 9d3d 6edc a83d ebab e4bc 92c1 e73d
000001f0: 10f8 7cbd 1610 abbc 30b9 39bc 4b3b 1fbd
00000200: 6a93 ad3d f1b3 86bd c31d 993d 0a19 a23c
00000210: 8054 a13d af03 eabb e6a0 de3a c868 93bd
00000220: e99b 90bc ec8d 093c 7805 6bbd 16cf 38bd
00000230: dca5 81bc 9fa2 21bd 7726 1abc d98d 5a3d
00000240: c4ea 81bd d948 4a3d 8df6 5e3d 807d bdbd
00000250: cac7 7ebd bac5 8c3d 2a94 cebc 1f3a 8bbd
00000260: 0436 20bd 31cc 853d 0ecf a53c 7fb8 75bd
00000270: 678c e73c 523d 693d fb43 2c3d 8f01 933d
00000280: fc18 b53c b440 94bd 1f14 a73d dccc e3bc
00000290: 989b 9fbc 489c f6bc 73fe fa3c 6db1 403c
000002a0: ca87 25bd ca9c 5d3d cc22 fd3b 4580 01bd
000002b0: 0b46 94bd d3ee 283d 160d d83d ab86 073d
000002c0: 64ec 033b f559 413c 90b2 3ebd b017 d6be
000002d0: ad09 67bd aaa7 e5bd e42e 08bd 1da3 0e3e
000002e0: 7e10 b13d a29d 133d 04ab 3a3c 108e 833d
000002f0: 2358 2f3d e0c5 a63d e50e 103c def4 93bd
00000300: 8a9e 32bd b0be 213d 3b7a 413d 22de 37bd
00000310: beb6 a0bd d758 e2bd 5964 42bc 4c29 313a
00000320: 6f44 e43c 5b11 a3bd e249 643d 7d38 74bd
00000330: ad91 513d a4ea dd3c 8906 e639 38fe f4bc
00000340: dee3 a8bd c876 6fbc ed32 0dbc a55c 50bd
00000350: 9816 c9bd 8d83 953d 23e8 603a 4719 87bd
00000360: e286 9d3d f121 8e3d 2d77 3dba bc7a dcb8
00000370: 8f10 983c 7267 62bc e401 21bc acba b83c
00000380: cf88 623d 64d9 94bc b8a3 093d be44 8c3d
00000390: 73f7 863a b7ca 023d 82f7 7f3b 374d 903d
000003a0: 995f a1bc 0e8c 9cbc 77ad a13d d5b4 71bd
000003b0: 8db7 f73b 89ff 8f3c 22fa 583b 5bad 883d
000003c0: 1ff0 873d d907 06bd 6aa9 95bd 2fe6 093c
000003d0: 87c4 ec3c 025d f4bc c3f0 9dbc fcfd 3cbd
000003e0: e447 19bd cfc4 b43d 932b 113d 0170 40bc
000003f0: 3567 ef3b 8d9e 33bd 66a7 c2bc ffa1 103c

gnn.conv1.movie__rev_rates__user.lin_l.bias f4 [64]
0.0062766164 -0.033124104 0.04119065 -0.04606795 0.06469867 -0.010116261 -0.056074858 -0.09684407
-0.0994403 -0.048542242 -0.05880961 0.07794553 -0.06986822 -0.08657944 -0.09606455 -0.046585567
0.056984708 -0.06594672 -0.024478944 0.05685267 -0.08087351 -0.0036874618 -0.04320587 0.021615466
0.051182687 -0.012292808 -0.014688045 -0.09148573 0.0588047 -0.02671058 -0.047515117 0.017184211
-0.087583885 -0.08770832 0.015533686 -0.04010128 -0.10146143 -0.04130692 -0.034998953 0.0064148055
0.057843897 0.046365503 -0.08386404 0.040381454 -0.046758454 -0.04265626 -0.036158074 -0.08639746
-0.009986818 -0.07047653 0.022109346 -0.08359147 -0.096838705 -0.043262362 -0.028436102 0.071227945
0.009102298 0.038210362 -0.09959185 -0.026664944 -0.046817668 -0.043609817 -0.020401454 0.028932482
00000000: 13ac cd3b 24ad 07bd 87b7 283d bfb1 3cbd
00000010: bc80 843d adbe 25bc c0ae 65bd 2f56 c6bd
00000020: 5ba7 cbbd 3bd4 46bd 58e2 70bd e8a1 9f3d
00000030: 1217 8fbd 9050 b1bd 7ebd c4bd 82d0 3ebd
00000040: cc68 693d 130f 87bd 1188 c8bc 58de 683d
00000050: 03a1 a5bd 58a9 71bb a3f8 30bd eb12 b13c
00000060: f0a4 513d c667 49bc 20a6 70bc df5c bbbd
00000070: 32dd 703d 25d0 dabc 369f 42bd e7c5 8c3c
00000080: 2e5f b3bd 6ba0 b3bd 0081 7e3c 3d41 24bd
00000090: 03cb cfbd 7231 29bd 105b 0fbd 4a33 d23b
000000a0: b9ed 6c3d c1e9 3d3d e9c0 abbd 0667 253d
000000b0: cb85 3fbd 55b8 2ebd 7d1a 14bd 27f1 b0bd
000000c0: c09f 23bc 0056 90bd a91e b53c 0132 abbd
000000d0: 5f53 c6bd e033 31bd d4f2 e8bc f5df 913d
000000e0: ce21 153c 7882 1c3d d0f6 cbbd 7170 dabc
000000f0: e2c3 3fbd 35a0 32bd f320 a7bc d003 ed3c

gnn.conv1.movie__rev_rates__user.lin_r.weight f4 [64, 610]
0.24893324 -0.11721506 -0.38880146 -0.3514852 -0.14534232 0.2699851 -0.39824238 -0.029849693
-0.18430114 -0.3733534 0.12816297 0.227513 0.014548367 0.009819073 -0.4113512 0.1776214
0.30627477 0.45560676 0.16090539 -0.26346543 -0.1759476 -0.41863772 0.07198206 0.42620474
0.6759326 0.4461922 -0.12890759 0.04857598 0.26086438 0.25511134 -0.19924696 0.23627168
-0.11654471 -0.41372067 0.044929437 -0.2603654 -0.0039412836 -0.16839224 -0.32616463 -0.021237997
-0.3848145 -0.020025361 0.35614276 -0.17548853 0.049207762 0.1859329 -0.2661949 0.21444117
0.60773313 0.14713553 -0.37810275 0.17157467 0.750674 0.4478107 -0.38195446 0.41172332
-0.07009302 -0.0964172 -0.051192462 0.44335654 0.36075294 0.19928652 -0.36501613 0.20740443
0.43320885 0.23813859 -0.16598837 -0.024990352 0.23349658 0.19227377 -0.35085702 0.44409534
-0.22636995 0.15155326 -0.41705772 -0.4117928 -0.4245549 -0.35320544 -0.087105274 0.5362718
-0.3873317 0.18196206 -0.39876252 0.31578192 -0.33342114 0.38726452 0.39366543 -0.21064031
-0.32323313 0.12746733 -0.07568473 0.39353094 0.6004052 -0.037407488 0.3005668 -0.3538961
0.17777185 -0.35474712 -0.122954965 0.28184083 -0.035175517 0.3351206 0.19309567 0.19948648
0.29502144 -0.012117184 0.34563202 -0.17701513 0.4292961 0.14055653 -0.2784671 -0.42383343
-0.2855264 -0.28153095 -0.30161196 -0.40430272 0.49191758 0.16210026 0.3743823 0.20497133
0.1298446 0.4627692 0.42341977 0.119977 0.027016964 -0.4639378 -0.34874824 0.11701241
0.29017168 0.02813869 0.024352523 0.17756015 0.18388937 0.41696826 -0.120163456 -0.43605623
0.10287802 -0.36040387 -0.29626325 0.13580275 0.05315139 0.32794812 -0.3743742 0.2965786
0.34878907 0.044641532 -0.3876331 0.030104533 -0.38645595 0.30154005 0.30929512 0.18294984
-0.3924353 -0.46691933 0.26548898 -0.020134447 0.06071681 0.12468043 -0.38029394 -0.3986473
-0.39476368 0.17983663 0.4276534 0.06786876 0.30003026 0.21351707 -0.39568913 0.20333412
0.4977984 0.346844 0.3705299 0.28066167 -0.103045456 -0.0657295 -0.32093236 0.10107291
-0.0511468 0.0502347 0.44947338 0.1697255 0.13004656 -0.12022406 0.048334885 -0.15536354
0.23192528 0.48310387 -0.25689334 0.16345643 0.51254004 0.12993102 -0.38459253 0.017590191
-0.4018794 0.47130403 -0.273703 -0.19657426 -0.30792344 -0.35756728 -0.19618693 0.056584373
-0.030062307 0.28796607 -0.16799107 -0.2933578 0.01291488 0.28627327 -0.34249476 0.030668685
-0.10177998 0.045408227 0.089135855 0.111388475 0.38988018 0.5348338 -0.04135655 -0.20349355
0.18832444 -0.18657538 -0.14650801 -0.16780469 0.14250444 0.13990815 -0.16428962 -0.31703088
-0.122263744 0.05529512 0.24133284 0.51403904 0.38699877 -0.40704244 -0.3002261 0.37392512
0.15634173 0.007520328 0.12522887 -0.3250761 0.20202607 0.10526574 0.092087634 0.011603682
0.1270722 0.19241235 0.036289364 -0.35905504 -0.13230766 0.041003272 -0.11783574 0.056543656
0.48126096 -0.038115997 0.23503086 0.21933083 0.122006476 0.14026758 -0.33695334 0.124610245
00000000: 5be8 7e3e 730e f0bd fc10 c7be def5 b3be
00000010: 9ed4 14be 7d3b 8a3e 6de6 cbbe 5887 f4bc
00000020: 70b9 3cbe 2d28 bfbe 273d 033e 2bf9 683e
00000030: 465c 6e3c 2de0 203c a09c d2be 62e2 353e
00000040: 0cd0 9c3e 4a45 e93e 62c4 243e f1e4 86be
00000050: 9c2b 34be af57 d6be 556b 933d 8237 da3e
00000060: eb09 2d3f 4e73 e43e 5a00 04be 9bf7 463d
00000070: 0490 853e f49d 823e 6507 4cbe 34f1 713e
00000080: feae eebd 32d3 d3be ee07 383d 9d4e 85be
00000090: e225 81bb 046f 2cbe 0dff a6be 4ffb adbc
000000a0: 6806 c5be 3a0c a4bc 5858 b63e 44b3 33be
000000b0: 148e 493d 3265 3e3e b34a 88be 7796 5b3e
000000c0: 6694 1b3f b2aa 163e af96 c1be 45b1 2f3e
000000d0: 2c2c 403f 7247 e53e 898f c3be 66cd d23e
000000e0: ee8c 8fbd 6276 c5bd 30af 51bd a1ff e23e
000000f0: 9cb4 b83e c411 4c3e 65e3 babe d461 543e
00000100: 8dcd dd3e 9ada 733e dbf8 29be 91b8 ccbc
00000110: ba19 6f3e 6ae3 443e 88a3 b3be 7760 e33e
00000120: 86cd 67be c730 1b3e 9788 d5be 82d6 d2be
00000130: 435f d9be 58d7 b4be 4064 b2bd 1c49 093f
00000140: 5750 c6be 4354 3a3e 9a2a ccbe 2bae a13e
00000150: 2db6 aabe 8947 c63e 848e c93e 18b2 57be
00000160: d07e a5be cc86 023e 9900 9bbd e37c c93e
00000170: 28b4 193f 9838 19bd e4e3 993e df31 b5be
00000180: d309 363e 6aa1 b5be d0cf fbbd 714d 903e
00000190: 3414 10bd ed94 ab3e dfba 453e 2f46 4c3e
000001a0: 0d0d 973e 2787 46bc aef6 b03e 7443 35be
000001b0: b3cc db3e 0dee 0f3e 3d93 8ebe b200 d9be
000001c0: 8430 92be d324 90be e26c 9abe c400 cfbe
000001d0: 9fdc fb3e 9cfd 253e 09af bf3e 01e4 513e
000001e0: fcf5 043e 16f0 ec3e 7aca d83e 80b6 f53d
000001f0: ae52 dd3c 4189 edbe 218f b2be 34a4 ef3d
00000200: 6291 943e 1c83 e63c f17e c73c 54d2 353e
00000210: 7f4d 3c3e dd7c d53e 4218 f6bd c342 dfbe
00000220: b6b1 d23d db86 b8be d1af 97be e00f 0b3e
00000230: 46b5 593d d1e8 a73e faad bfbe 26d9 973e
00000240: 7b94 b23e 0ada 363d d877 c6be c89d f63c
00000250: 8edd c5be 7563 9a3e ee5b 9e3e 3457 3b3e
00000260: 48ed c8be 0d10 efbe 2cee 873e fff0 a4bc
00000270: 31b2 783d 7458 ff3d e3b5 c2be 801b ccbe
00000280: 771e cabe 1827 383e 63f5 da3e c7fe 8a3d
00000290: 919d 993e 38a4 5a3e c497 cabe d236 503e
000002a0: 6fdf fe3e 8995 b13e 18b6 bd3e e3b2 8f3e
000002b0: 7f09 d3bd 309d 86bd 3f51 a4be 50ff ce3d
000002c0: 4f7f 51bd e7c2 4d3d 6021 e63e 85cc 2d3e
000002d0: ed2a 053e 0838 f6bd cdfa 453d 9f17 1fbe
000002e0: d27d 6d3e 6459 f73e 8687 83be 1f61 273e
000002f0: d335 033f a30c 053e 50e9 c4be 4e19 903c
00000300: 23c3 cdbe c34e f13e cd22 8cbe c34a 49be
00000310: 24a8 9dbe 0f13 b7be 3ae5 48be 04c5 673d
00000320: 3a45 f6bc 4a70 933e da05 2cbe fe32 96be
00000330: ef98 533c 6992 923e 795b afbe e53c fb3c
00000340: 0672 d0bd fafd 393d dc8c b63d a41f e43d
00000350: 609e c73e deea 083f 7c65 29bd 9d60 50be
00000360: 1fd8 403e 9e0d 3fbe 3206 16be fed4 2bbe
00000370: afec 113e 1544 0f3e 8a3b 28be df51 a2be
00000380: 6a65 fabd 237d 623d f51f 773e 1098 033f
00000390: b424 c63e de67 d0be 3cb7 99be 1d73 bf3e
000003a0: 0c18 203e 156d f63b ff3b 003e 6070 a6be
000003b0: ecdf 4e3e 9095 d73d 7198 bc3d 5f1d 3e3c
000003c0: 371f 023e be07 453e 28a4 143d 10d6 b7be
000003d0: a97b 07be 0cf3 273d dd53 f1bd 529a 673d
000003e0: d667 f63e 851f 1cbd eeab 703e 4398 603e
000003f0: 88de f93d 4ea2 0f3e 2685 acbe a833 ff3d

gnn.conv2.user__rates__movie.lin_l.weight f4 [64, 64]
0.10715477 -0.07516476 -0.16197857 -0.16395305 0.063542806 0.12895328 0.024391672 -0.08681031
-0.024985459 0.008311368 0.05047659 0.048387155 0.05446388 0.011448396 0.0029193626 0.0419728
-0.12171644 0.048565224 -0.04037042 0.072959304 -0.09848319 0.054028857 -0.0876681 0.05026759
0.007034136 -0.04520784 0.059405964 -0.14323677 0.08378725 -0.085178845 -0.034013525 -0.095686905
-0.11607092 0.052934438 0.068255596 -0.16491644 -0.14095838 0.030371042 -0.012410771 0.12231509
-0.01697676 -0.11415554 -0.1136457 0.013712753 0.12005858 -0.020360753 -0.037438314 0.022442838
0.07738432 0.017312907 0.067611955 -0.01906662 -0.031264897 -0.10801711 -0.0030393219 0.025715355
-0.026541533 -0.015665524 -0.0011391502 0.0042988667 0.004531488 0.05898948 -0.08092788 0.004360102
0.083911195 0.15257652 0.10788063 -0.061736856 -0.026190639 0.11070876 -0.025443975 -0.043735035
-0.03649131 0.15160987 0.023923347 0.12300228 0.00013492294 0.06302473 0.101404786 -0.10931049
0.049839128 -0.0035981773 0.113035105 0.08980445 -0.04627469 0.039995085 0.02085583 0.017665457
0.034476865 0.045665193 0.11391139 -0.038048428 0.17011783 0.00017905932 0.05492048 0.040112272
0.15296587 0.02360235 0.08809297 0.08977014 0.008694652 -0.003596847 0.13269567 0.11082831
0.11298249 -0.07290943 -0.013527047 0.042625487 0.035267472 0.011483103 -0.01592831 0.0580635
-0.05089193 0.016911702 -0.018474845 0.09361388 0.013140504 -0.022104569 -0.07993843 0.11331084
-0.047715668 -0.023443725 -0.061479826 0.16018075 0.028491354 0.05162625 0.033990216 0.092569865
-0.041261278 0.016740484 -0.12108987 0.034747466 -0.09972227 -0.017335286 0.012146779 -0.0067490637
-0.1175631 -0.01988935 -0.02571374 -0.07557962 -0.11148202 0.03921743 0.054349136 -0.021198787
-0.06881489 -0.13715766 -0.14114872 0.00047287572 -0.08897174 0.09110128 0.06472431 0.036629308
-0.1758389 0.036089428 -0.106173754 -0.12238041 -0.1438516 -0.056713965 0.10745376 0.0229378
-0.10288896 -0.18433504 -0.006704506 -0.10091993 -0.1634657 -0.09837851 0.033579122 -0.13670008
0.00029634577 -0.07364688 -0.05117623 -0.16205369 -0.04075241 0.095500425 0.027272137 -0.0805119
-0.12622383 0.047753893 -0.08649534 -0.1293947 -0.1542254 -0.104277834 0.030127546 -0.028799457
0.04584115 -0.1233262 -0.07652573 -0.07273369 -0.0679748 -0.086126655 -0.012500703 -0.10502287
-0.08815971 -0.051662166 0.043968983 -0.107042015 0.09811399 0.040749587 -0.15750879 -0.007393806
-0.02131568 0.029346531 -0.1578202 -0.03279279 -0.13342294 -0.14269988 0.00117647 -0.03177789
-0.010181169 0.059756357 0.05154194 0.050179627 0.04454625 0.056284647 0.012424633 -0.05306209
0.07800618 0.028745856 -0.004091702 -0.1709509 -0.011056714 -0.060104135 0.088747844 0.113622636
-0.10914864 -0.11982986 -0.0052453885 0.0440634 0.045120146 -0.17696294 -0.090687335 -0.061802324
-0.043395273 -0.052504648 0.0186542 0.09055405 0.059256434 -0.045679286 0.050089486 -0.10922655
-0.014122377 0.028988577 -0.07642681 -0.045258753 -0.18474144 -0.10492845 0.09976645 -0.12556063
-0.072417736 -0.094810806 0.012406668 -0.056246 0.03444179 0.10508154 0.070295155 0.010848195
00000000: f673 db3d fbef 99bd b6dd 25be 4fe3 27be
00000010: bb22 823d 540c 043e 0bd1 c73c 9bc9 b1bd
00000020: 4eae ccbc 672c 083c 8ac0 4e3d 9c31 463d
00000030: 8415 5f3d 0e92 3b3c c752 3f3b aceb 2b3d
00000040: 7846 f9bd 54ec 463d 745b 25bd b06b 953d
00000050: 8eb1 c9bd 5d4d 5d3d 558b b3bd 63e5 4d3d
00000060: 9c7e e63b db2b 39bd ab53 733d a9ac 12be
00000070: a698 ab3d 3f72 aebd c451 0bbd 7ff7 c3bd
00000080: 97b6 edbd c8d1 583d 97c9 8b3d dbdf 28be
00000090: 6557 10be b1cc f83c 8c56 4bbc 5580 fa3d
000000a0: d912 8bbc 61ca e9bd 14bf e8bd 74ab 603c
000000b0: 46e1 f53d 98cb a6bc eb58 19bd 0bda b73c
000000c0: ac7b 9e3d ccd3 8d3c 2378 8a3d 9a31 9cbc
000000d0: 9f0f 00bd 1338 ddbd 5c2f 47bb 02a9 d23c
000000e0: a16d d9bc fc54 80bc 8a4f 95ba 82dd 8c3b
000000f0: e07c 943b f49e 713d 84bd a5bd 30df 8e3b
00000100: a2d9 ab3d 053d 1c3e 85f0 dc3d c9df 7cbd
00000110: c08d d6bc 46bb e23d e26f d0bc 8223 33bd
00000120: e977 15bd 9e3f 1b3e e5fa c33c 9fe8 fb3d
00000130: 1a7a 0d39 1c13 813d 50ad cf3d 2ede dfbd
00000140: 1d24 4c3d 66cf 6bbb f37e e73d 65eb b73d
00000150: 888a 3dbd e3d1 233d d8d9 aa3c 26b7 903c
00000160: 9d37 0d3d 6d0b 3b3d 604a e93d abd8 1bbd
00000170: 5e33 2e3e dfc1 3b39 4cf4 603d c44c 243d
00000180: 16a3 1c3e b759 c13c 166a b43d 68d9 b73d
00000190: 0374 0e3c 14b9 6bbb 60e1 073e f4f9 e23d
000001a0: 5d63 e73d 8a51 95bd 8ca0 5dbc 1098 2e3d
000001b0: a074 103d a023 3c3c 167c 82bc fed3 6d3d
000001c0: 0e74 50bd 698a 8a3c 8f58 97bc a2b8 bf3d
000001d0: 454b 573c a414 b5bc c2b6 a3bd 840f e83d
000001e0: 8171 43bd 0e0d c0bc 45d2 7bbd 6c06 243e
000001f0: b366 e93c 0c76 533d 5339 0b3d 4595 bd3d
00000200: 9601 29bd 5723 893c f7fd f7bd 5c53 0e3d
00000210: 313b ccbd bb02 8ebc 4903 473c 4027 ddbb
00000220: ecc4 f0bd fdee a2bc 9fa5 d2bc 7dc9 9abd
00000230: af50 e4bd 75a2 203d 339d 5e3d 14a9 adbc
00000240: d2ee 8cbd 0f73 0cbe 4a89 10be 4eec f739
00000250: d136 b6bd 4f93 ba3d 2e8e 843d 9d08 163d
00000260: 1d0f 34be 82d2 133d a071 d9bd 95a2 fabd
00000270: d54d 13be e74c 68bd b810 dc3d 0ee8 bb3c
00000280: 72b7 d2bd 53c2 3cbe 79b1 dbbb 1caf cebd
00000290: 8d63 27be ac7a c9bd 438a 093d 1bfb 0bbe
000002a0: db5e 9b39 2dd4 96bd 2b9e 51bd 67f1 25be
000002b0: 00ec 26bd ba95 c33d d169 df3c 6ce3 a4bd
000002c0: d240 01be 9699 433d 7824 b1bd 0b80 04be
000002d0: 43ed 1dbe 9e8f d5bd 0bce f63c d7ec ebbc
000002e0: eec3 3b3d 7292 fcbd 86b9 9cbd 67f5 94bd
000002f0: 5f36 8bbd 2c63 b0bd c0cf 4cbc 3b16 d7bd
00000300: 148d b4bd b59b 53bd d218 343d d838 dbbd
00000310: fdef c83d 0ae9 263d fc49 21be bd47 f2bb
00000320: 399e aebc 2368 f03c 9e9b 21be bc51 06bd
00000330: 06a0 08be eb1f 12be c833 9a3a 8829 02bd
00000340: ebce 26bc 15c3 743d a41d 533d 2789 4d3d
00000350: 2176 363d bb8a 663d b090 4b3c a257 59bd
00000360: b4c1 9f3d 6e7c eb3c af13 86bb c10d 2fbe
00000370: 3827 35bc c12f 76bd 6ec1 b53d fcb2 e83d
00000380: 5289 dfbd 5c69 f5bd 82e1 abbb d37b 343d
00000390: e7cf 383d c635 35be 48ba b9bd 6f24 7dbd
000003a0: 3ebf 31bd 1d0f 57bd b1d0 983c 6774 b93d
000003b0: e0b6 723d 341a 3bbd a22a 4d3d 2bb2 dfbd
000003c0: 8b61 67bc 7479 ed3c a985 9cbd 3e61 39bd
000003d0: dc2c 3dbe bae4 d6bd 5a52 cc3d f792 00be
000003e0: c04f 94bd 2b2c c2bd 5645 4b3c 3562 66bd
000003f0: d612 0d3d fe34 d73d e8f6 8f3d a1bc 313c

gnn.conv2.user__rates__movie.lin_l.bias f4 [64]
-0.029021336 0.1226479 -0.18035713 0.064550705 -0.036412016 0.015966346 -0.14697592 0.035875905
0.09416559 -0.0701574 -0.073801644 -0.16810478 -0.17850555 0.039673954 0.1295756 -0.06813014
-0.1458272 -0.09388203 0.19557482 -0.0893446 0.18224852 -0.015743377 -0.07896553 0.0071087843
0.14033625 -0.14099592 -0.018552681 0.07514977 -0.1316388 -0.046243094 0.03520399 0.13761657
0.04529028 0.10556294 0.01565234 -0.011684248 -0.18582916 -0.108130775 0.044262607 -0.08507142
0.06493708 0.19722183 0.053250067 -0.18690443 -0.040150896 0.0342848 -0.071097344 0.16424607
-0.031005116 0.012151388 -0.103895344 0.19445762 -0.13952951 0.02030007 0.05573845 -0.12231358
0.112270005 -0.14385046 -0.11455474 -0.087212764 -0.19271715 0.061234318 -0.047645565 -0.01719961
00000000: 27be edbc d22e fb3d 8aaf 38be 2933 843d
00000010: c424 15bd dbcb 823c db80 16be 9df2 123d
00000020: e4d9 c03d afae 8fbd 5125 97bd a923 2cbe
00000030: 29ca 36be 2881 223d 77af 043e d187 8bbd
00000040: ba53 15be 3945 c0bd c444 483e 4dfa b6bd
00000050: 5b9f 3a3e 41f8 80bc aeb8 a1bd cef0 e83b
00000060: 4eb4 0f3e 3c61 10be cbfb 97bc 1fe8 993d
00000070: 52cc 06be 6669 3dbd 0f32 103d 5ceb 0c3e
00000080: 4d82 393d 6231 d83d 5639 803c 4a6f 3fbc
00000090: 004a 3ebe ab73 ddbd b54c 353d ed39 aebd
000000a0: bbfd 843d 85f4 493e be1c 5a3d e063 3fbe
000000b0: 4475 24bd 386e 0c3d 7c9b 91bd 1f30 283e
000000c0: 71fe fdbc 9e16 473c 15c7 d4bd e61f 473e
000000d0: d3e0 0ebe 554c a63c 004e 643d 8b7f fabd
000000e0: d1ed e53d 894d 13be ad9b eabd 9b9c b2bd
000000f0: a557 45be d6d0 7a3d ff27 43bd 32e6 8cbc

gnn.conv2.user__rates__movie.lin_r.weight f4 [64, 64]
-0.043629065 -0.17029554 -0.08966392 -0.17466663 0.0071939076 0.03783106 -0.11148124 -0.11783242
-0.11235475 0.038120687 -0.05098523 0.062397946 0.088542774 -0.014066946 -0.098214954 0.04425388
-0.14318316 0.079512276 0.053676616 0.04817658 -0.047998797 0.10190544 -0.15525414 -0.14247327
0.012387811 -0.1446219 -0.025629228 -0.040728673 -0.009572231 -0.12176549 -0.18193825 -0.17248644
-0.13391435 0.051364962 0.0035580706 -0.015519262 -0.17606767 0.0013941027 -0.026200527 0.009725989
-0.06182763 -0.12354171 0.041708924 0.06719032 -0.15978959 -0.019611254 0.03985017 0.04779129
0.039257236 -0.14506024 0.0126140835 0.02009029 0.03251249 -0.01475783 -0.015205061 -0.11979606
-0.17031917 -0.06358804 -0.119037524 -0.11228714 -0.080858886 -0.053945478 -0.1706138 0.026603717
-0.05243725 0.10094661 0.004089286 0.12348188 0.18352841 0.0021927305 -0.09968058 0.023648046
0.032025173 -0.05710821 0.09785049 0.08971466 0.020736141 0.058291942 0.092670046 0.054174803
-0.0070903907 -0.07255008 0.08185508 -0.010572017 0.025508447 -0.038610205 -0.016733432 -0.017761564
0.029807819 0.037948713 0.11437252 -0.0015863773 0.07754769 -0.040785573 0.09386612 0.18429045
-0.008738538 -0.03147619 0.026009299 0.022753553 -0.07019113 0.020281374 0.18267377 0.10501585
-0.03009081 -0.07372166 0.058583066 0.08610061 0.03975545 -0.025170386 0.04392052 0.13387519
0.16314964 0.018967817 0.15570566 -0.012025464 0.1403146 0.02010858 0.104979046 0.053905685
0.023956534 -0.018827112 0.0913688 -0.061782237 -0.09128506 -0.06665959 0.021939127 0.138637
0.061203208 -0.16694762 -0.14510468 -0.058816794 -0.1615968 0.052053254 0.09241571 -0.049969684
-0.078736 -0.022177799 -0.12283673 -0.1393275 -0.12506561 -0.019464798 0.011497004 -0.060647912
-0.104554825 -0.071334004 -0.03529207 -0.13748056 -0.067102395 -0.13834614 -0.0963113 -0.06387565
-0.16302885 0.018350005 -0.087318935 -0.095038876 0.053507663 -0.1355315 -0.11379762 -0.00017700551
0.031992983 -0.12721832 -0.096215405 0.017228322 -0.12387265 -0.15807441 0.013575987 0.008732889
0.03643007 -0.06513004 0.048899785 0.023460554 -0.0017247235 0.057176948 0.010343446 -0.06075455
-0.056539066 -0.12465255 -0.020291414 -0.12052932 -0.11895822 0.042915978 -0.07400547 0.09675146
0.045913972 -0.16977991 -0.09567291 -0.108830884 0.11732401 -0.13852884 -0.14165159 -0.064745456
-0.18365735 -0.13953994 0.04752301 -0.1648475 0.06244622 -0.009560948 0.08663827 -0.025642177
0.023397334 -0.10480558 0.023805546 -0.03889763 -0.07763053 -0.003994989 -0.017939707 -0.096923605
-0.051277667 0.09154836 -0.1739348 0.037075136 -0.14216512 -0.10156367 -0.118060805 -0.09997042
-0.09489968 -0.034133065 -0.118419364 -0.09033078 -0.07510069 0.07946031 -0.17051698 -0.16215213
-0.03832017 -0.13229264 0.017300177 0.005622865 -0.13782233 0.010656682 -0.05587185 0.06485678
0.030194875 -0.000567954 0.022341475 0.0016387971 0.050265305 -0.12601016 -0.070060685 -0.114171214
0.08053743 0.024466084 0.030268945 -0.0983364 -0.10388102 -0.16208546 -0.12396526 -0.10668936
0.04461577 -0.0014211995 -0.0744324 -0.016086467 -0.08909292 0.03775767 -0.054849587 0.045547605
00000000: 64b4 32bd f461 2ebe b8a1 b7bd cfdb 32be
00000010: dfba eb3b bef4 1a3d 4750 e4bd 2052 f1bd
00000020: 3f1a e6bd 7024 1c3d e3d5 50bd fd94 7f3d
00000030: ea55 b53d 0c79 66bc ec24 c9bd 8e43 353d
00000040: 9b9e 12be 55d7 a23d 03dc 5b3d ce54 453d
00000050: 639a 44bd cdb3 d03d f1fa 1ebe 83e4 11be
00000060: 3ff6 4a3c c317 14be 63f4 d1bc 1cd3 26bd
00000070: d9d4 1cbc 2f60 f9bd 054e 3abe 49a0 30be
00000080: d820 09be 1164 523d 852e 693b 8144 7ebc
00000090: 154b 34be 53ba b63a 7da2 d6bc c159 1f3c
000000a0: f83e 7dbd 7003 fdbd fad6 2a3d 149b 893d
000000b0: e29f 23be c8a7 a0bc ef39 233d cdc0 433d
000000c0: 32cc 203d ac8a 14be 4dab 4e3c 6494 a43c
000000d0: d12b 053d d3ca 71bc a61e 79bc a357 f5bd
000000e0: 2668 2ebe 723a 82bd f2c9 f3bd cdf6 e5bd
000000f0: 5899 a5bd eff5 5cbd 62b5 2ebe 0af0 d93c
00000100: 71c8 56bd 19bd ce3d 6bff 853b 11e4 fc3d
00000110: dfee 3b3e eab3 0f3b 5525 ccbd 8cb9 c13c
00000120: d42c 033d 4cea 69bd d665 c83d 52bc b73d
00000130: d7de a93c 88c3 6e3d cbc9 bd3d 66e6 5d3d
00000140: 8256 e8bb 2395 94bd a3a3 a73d 4136 2dbc
00000150: 17f7 d03c bc25 1ebd 8d14 89bc b380 91bc
00000160: 872f f43c 1c70 1b3d 243c ea3d fded cfba
00000170: 53d1 9e3d c60e 27bd e13c c03d a3b6 3c3e
00000180: 162c 0fbc 2ded 00bd 7411 d53c a965 ba3c
00000190: 5ec0 8fbd 2025 a63c d50e 3b3e 8d12 d73d
000001a0: 0181 f6bc 62fb 96bd ccf4 6f3d 8455 b03d
000001b0: 9cd6 223d 2032 cebc 01e6 333d 9416 093e
000001c0: b310 273e 6562 9b3c 4e71 1f3e 7406 45bc
000001d0: a1ae 0f3e c0ba a43c 41ff d63d 35cc 5c3d
000001e0: 7e40 c43c 513b 9abc 911f bb3d 5f0f 7dbd
000001f0: a9f3 babd d384 88bd afb9 b33c dcf6 0d3e
00000200: 37b0 7a3d 51f4 2abe 5296 14be e1e9 70bd
00000210: a279 25be cb35 553d 7344 bd3d 03ad 4cbd
00000220: 5740 a1bd 37ae b5bc d391 fbbd deab 0ebe
00000230: 3311 00be a474 9fbc ee5d 3c3c f269 78bd
00000240: d720 d6bd 9017 92bd 6b8e 10bd b4c7 0cbe
00000250: fb6c 89bd 9caa 0dbe dc3e c5bd 3dd1 82bd
00000260: 09f1 26be c052 963c 45d4 b2bd bea3 c2bd
00000270: da2a 5b3d c5c8 0abe ba0e e9bd 8e9a 39b9
00000280: 130b 033d 8545 02be 950c c5bd 6922 8d3c
00000290: f2b0 fdbd 42de 21be d16d 5e3c 6414 0f3c
000002a0: b237 153d e662 85bd 244b 483d 5930 c03c
000002b0: 1e10 e2ba 6032 6a3d 8f77 293c c3d9 78bd
000002c0: 8295 67bd d649 ffbd 2e3a a6bc 13d8 f6bd
000002d0: 5ea0 f3bd aac8 2f3d 2e90 97bd a125 c63d
000002e0: 4a10 3c3d c9da 2dbe 29f0 c3bd bae2 debd
000002f0: 9247 f03d 81da 0dbe 1d0d 11be 4499 84bd
00000300: ac10 3cbe 8fe3 0ebe 7da7 423d c8cd 28be
00000310: 9cc7 7f3d 86a5 1cbc 686f b13d 8b0f d2bc
00000320: c4ab bf3c 4fa4 d6bd d903 c33c 1f53 1fbd
00000330: c1fc 9ebd 66e8 82bb 4bf6 92bc e27f c6bd
00000340: 8808 52bd b57d bb3d f71b 32be 19dc 173d
00000350: bc93 11be 9d00 d0bd ddc9 f1bd 4bbd ccbd
00000360: c35a c2bd 1dcf 0bbd da85 f2bd 58ff b8bd
00000370: 64ce 99bd 16bc a23d 019c 2ebe 350b 26be
00000380: 9cf5 1cbd b977 07be 1ab9 8d3c 0340 b83b
00000390: 4c21 0dbe 5d99 2e3c e2d9 64bd a2d3 843d
000003a0: 3e5b f73c bfe2 14ba 7805 b73c e8cc d63a
000003b0: fee2 4d3d cf08 01be fa7b 8fbd 99d2 e9bd
000003c0: cff0 a43d 196d c83c 94f6 f73c 9864 c9bd
000003d0: 92bf d4bd bbf9 25be 80e1 fdbd f47f dabd
000003e0: 07bf 363d 8b47 baba 0470 98bd c4c7 83bc
000003f0: 5976 b6bd c9a7 1a3d f6a9 60bd 2090 3a3d

gnn.conv2.movie__rev_rates__user.lin_l.weight f4 [64, 64]
0.03266538 0.059968673 -0.04520676 -0.007597992 0.06139353 0.13119198 -0.0030456153 0.04041608
-0.040575515 -0.06157471 0.024323793 0.11915077 -0.10068851 0.00037153251 -0.07924002 0.101295345
-0.120106295 -0.038107004 0.08350804 0.019683668 -0.038484436 -0.0689852 0.10528194 -0.07253249
0.006573247 -0.035499066 0.13664813 0.09256692 0.031581536 0.017197771 0.05444884 0.1783098
-0.014763209 0.18495768 -0.09592974 0.034741275 0.018505385 -0.0035139213 0.07824091 0.10520973
0.026161386 -0.015414094 0.0060534403 -0.08628757 0.14334515 -0.06255707 0.10733413 0.009775062
0.011790827 0.1294424 0.006974129 0.04730644 0.06831917 -0.005463802 0.028011914 0.118283376
0.16878653 0.18239287 0.103449956 0.014084431 -0.03939275 -0.021850714 0.087191924 0.060763247
-0.031678587 0.11745156 -0.06976482 0.06650074 -0.029765 0.124159254 -0.09487771 -0.004961107
-0.028396204 -0.006016027 0.06615002 0.1527021 0.002901128 0.098982 0.03146328 0.062522106
-0.056859564 0.1009604 0.07969889 0.17797095 0.1788748 0.1457315 -0.027181802 0.022659061
0.07905571 0.0137242945 0.08841744 0.0035560555 0.017718565 0.08009301 0.060771592 -0.061181433
0.050674107 -0.03355332 -0.022941584 0.055766903 -0.015509871 0.06944142 0.11592825 0.13117245
0.05394869 0.041953057 0.0007045249 0.024868498 0.11615445 0.075363144 -0.027007213 0.17223313
0.10096056 0.11257807 0.05556163 0.03595249 0.15206997 0.10632774 -0.008385703 -0.045862652
0.15295285 0.122287504 -0.059302438 0.0019249781 0.11148757 -0.005122768 0.17382878 -0.042916022
0.073153704 0.09469722 -0.0014534597 0.007325123 -0.028055135 -0.06751776 0.022540767 -0.0211577
0.061784845 -0.06833697 0.123581916 0.078128435 0.051935498 -0.026590187 -0.013173732 -0.0063849688
-0.012005218 0.12415853 0.0339502 -0.037786644 0.13730761 0.039065257 0.08091009 0.14119118
0.024215266 -0.057893734 -0.06092067 0.003742709 0.0062571964 0.054977827 0.06124446 0.099041305
0.11650059 -0.059561238 0.011591804 0.12484008 -0.100629516 0.09448711 0.12292063 -0.03161161
0.107440025 -0.0244352 0.17883824 -0.036962375 0.17003743 0.121855095 0.17376406 0.061167862
0.13098426 0.12729983 0.011042669 0.018283397 0.031807743 0.04837786 0.0098497085 0.07052381
0.17635813 0.05682268 -0.1333153 -0.057662368 0.1439357 -0.071906276 0.084313266 0.05057595
-0.12899606 -0.012289365 -0.06259258 0.010244905 -0.010339428 0.08916891 -0.049912922 -0.028146135
-0.17087413 0.16962829 0.094844304 -0.046344634 -0.034391195 0.0291486 0.018647626 -0.18010938
0.1325402 -0.030107986 -0.13069542 0.02818112 -0.058057886 -0.0031517511 -0.04842323 0.1264424
-0.1310615 0.06476744 0.021136891 0.0017761716 0.0042309514 0.16274737 0.0054649627 -0.17310143
0.031844668 -0.1266837 -0.0665477 0.0341805 0.07908808 -0.081331976 -0.13469887 0.14422226
-0.052411538 -0.057545077 -0.026089055 0.047240626 -0.07554543 -0.0845484 -0.027678626 -0.14441161
-0.059278216 0.11292908 -0.16022108 -0.14851108 -0.040851574 -0.10791663 0.054817293 -0.062956505
-0.094796725 -0.057414103 -0.13851584 0.03625289 0.07490823 -0.05496246 -0.03397288 -0.05415256
00000000: 22cc 053d b6a1 753d b92a 39bd 94f8 f8bb
00000010: c877 7b3d 3157 063e f298 47bb 558b 253d
00000020: 8332 26bd c335 7cbd b142 c73c 5205 f43d
00000030: c735 cebd 40ca c239 9748 a2bd ef73 cf3d
00000040: 4afa f5bd 1716 1cbd 4306 ab3d a53f a13c
00000050: dba1 1dbd 1d48 8dbd 0f9e d73d ea8b 94bd
00000060: 6464 d73b 7867 11bd 7ded 0b3e ba93 bd3d
00000070: a45b 013d 57e2 8c3c bf05 5f3d d896 363e
00000080: 63e1 71bc 8c65 3d3e d076 c4bd de4c 0e3d
00000090: 9b98 973c d149 66bb c53c a03d 3378 d73d
000000a0: 6750 d63c 658b 7cbc f05b c63b 8ab7 b0bd
000000b0: 12c9 123e ec1d 80bd ffd1 db3d 9527 203c
000000c0: 502e 413c 8c8c 043e 3c87 e43b 66c4 413d
000000d0: ecea 8b3d b109 b3bb 3e79 e53c 8e3e f23d
000000e0: 60d6 2c3e 32c5 3a3e 92dd d33d 63c2 663c
000000f0: 4b5a 21bd 4500 b3bc ae91 b23d e2e2 783d
00000100: 68c1 01bd 728a f03d dce0 8ebd 8a31 883d
00000110: bbd5 f3bc 3547 fe3d 3f4f c2bd c890 a2bb
00000120: 289f e8bc 1822 c5bb a979 873d f05d 1c3e
00000130: da20 3e3b 13b7 ca3d a4df 003d 970b 803d
00000140: 93e5 68bd 54c4 ce3d 2c39 a33d 043e 363e
00000150: f52a 373e a33a 153e 5fac debc 7f9f b93c
00000160: f6e7 a13d dddb 603c 3414 b53d b60c 693b
00000170: 8626 913c ce07 a43d a2eb 783d 6299 7abd
00000180: a78f 4f3d 356f 09bd fdef bbbc d66b 643d
00000190: 1d1d 7ebc 4e37 8e3d ca6b ed3d 1252 063e
000001a0: 4df9 5c3d f8d6 2b3d deaf 383a 05b9 cb3c
000001b0: 62e2 ed3d fe57 9a3d 3b3e ddbc e25d 303e
000001c0: 69c4 ce3d 558f e63d 9794 633d eb42 133d
000001d0: 3bb8 1b3e 5cc2 d93d 3064 09bc 7ada 3bbd
000001e0: ac9f 1c3e df71 fa3d 1de7 72bd 8c4f fc3a
000001f0: 9853 e43d e5dc a7bb 2c00 323e b6c8 2fbd
00000200: 9cd1 953d 9ef0 c13d 0482 beba 9607 f03b
00000210: e2d3 e5bc c046 8abd 6aa7 b83c ea52 adbc
00000220: 1b12 7d3d 41f4 8bbd 8418 fd3d cd01 a03d
00000230: 51ba 543d aad3 d9bc a3d6 57bc 0039 d1bb
00000240: 89b1 44bc d446 fe3d 5d0f 0b3d 2bc6 1abd
00000250: 5e9a 0c3e e402 203d 30b4 a53d 6c94 103e
00000260: 185f c63c fb21 6dbd f487 79bd 3d48 753b
00000270: 2b09 cd3b 6e30 613d 79db 7a3d 2bd6 ca3d
00000280: dd97 ee3d 7cf6 73bd 8deb 3d3c 28ac ff3d
00000290: d916 cebd 7582 c13d d0bd fb3d 2d7b 01bd
000002a0: 8409 dc3d 542c c8bc 5f21 373e dc65 17bd
000002b0: 4b1e 2e3e 2a8f f93d 35ef 313e 278b 7a3d
000002c0: bd20 063e e35a 023e 50ec 343c 10c7 953c
000002d0: d648 023d dd27 463d ac60 213c ca6e 903d
000002e0: 3a97 343e e6be 683d ce83 08be 602f 6cbd
000002f0: e163 133e 9943 93bd 6fac ac3d ba28 4f3d
00000300: 8b17 04be 5559 49bc 8a30 80bd 3fda 273c
00000310: b466 29bc 319e b63d 7e71 4cbd b992 e6bc
00000320: a1f9 2ebe 0ab3 2d3e bb3d c23d dfd3 3dbd
00000330: c8dd 0cbd 0bc9 ee3c e8c2 983c 986e 38be
00000340: 9eb8 073e 06a5 f6bc 05d5 05be 18dc e63c
00000350: 1bce 6dbd 9c8d 4ebb 7057 46bd 1e7a 013e
00000360: fc34 06be cba4 843d 4627 ad3c 6ece e83a
00000370: cba3 8a3b 3fa7 263e 6e13 b33b 8041 31be
00000380: 8e6f 023d 5fb9 01be 294a 88bd da00 0c3d
00000390: eef8 a13d 6191 a6bd 80ee 09be 00af 133e
000003a0: 7bad 56bd 63b4 6bbd b7b8 d5bc 637f 413d
000003b0: 90b7 9abd b627 adbd 49be e2bc a3e0 13be
000003c0: b7cd 72bd 5d47 e73d ff10 24be 4a13 18be
000003d0: fb53 27bd 6503 ddbd 1988 603d 57ef 80bd
000003e0: c924 c2bd 0d2b 6bbd 19d7 0dbe e97d 143d
000003f0: 7c69 993d 5120 61bd 2627 0bbd 13cf 5dbd
